Model input shape (110, 6)
Model: "model_1"
__________________________________________________________________________________________________
Layer (type)                    Output Shape         Param #     Connected to                     
==================================================================================================
input_1 (InputLayer)            (None, 110, 6)       0                                            
__________________________________________________________________________________________________
input_3 (InputLayer)            (None, 110, 6)       0                                            
__________________________________________________________________________________________________
input_2 (InputLayer)            (None, 110, 6)       0                                            
__________________________________________________________________________________________________
input_4 (InputLayer)            (None, 110, 6)       0                                            
__________________________________________________________________________________________________
input_5 (InputLayer)            (None, 110, 6)       0                                            
__________________________________________________________________________________________________
r_arm_layer (SimpleRNN)         (None, 110, 2)       18          input_1[0][0]                    
__________________________________________________________________________________________________
trunk_layer (SimpleRNN)         (None, 110, 2)       18          input_3[0][0]                    
__________________________________________________________________________________________________
l_arm_layer (SimpleRNN)         (None, 110, 2)       18          input_2[0][0]                    
__________________________________________________________________________________________________
r_leg_layer (SimpleRNN)         (None, 110, 2)       18          input_4[0][0]                    
__________________________________________________________________________________________________
l_leg_layer (SimpleRNN)         (None, 110, 2)       18          input_5[0][0]                    
__________________________________________________________________________________________________
r_arm_trunk_layer (Concatenate) (None, 110, 4)       0           r_arm_layer[0][0]                
                                                                 trunk_layer[0][0]                
__________________________________________________________________________________________________
l_arm_trunk_layer (Concatenate) (None, 110, 4)       0           l_arm_layer[0][0]                
                                                                 trunk_layer[0][0]                
__________________________________________________________________________________________________
r_leg_trunk_layer (Concatenate) (None, 110, 4)       0           r_leg_layer[0][0]                
                                                                 trunk_layer[0][0]                
__________________________________________________________________________________________________
l_leg_trunk_layer (Concatenate) (None, 110, 4)       0           l_leg_layer[0][0]                
                                                                 trunk_layer[0][0]                
__________________________________________________________________________________________________
upper_body_layer (Concatenate)  (None, 110, 8)       0           r_arm_trunk_layer[0][0]          
                                                                 l_arm_trunk_layer[0][0]          
__________________________________________________________________________________________________
lower_body_layer (Concatenate)  (None, 110, 8)       0           r_leg_trunk_layer[0][0]          
                                                                 l_leg_trunk_layer[0][0]          
__________________________________________________________________________________________________
full_body_layer (Concatenate)   (None, 110, 16)      0           upper_body_layer[0][0]           
                                                                 lower_body_layer[0][0]           
__________________________________________________________________________________________________
dropout_1 (Dropout)             (None, 110, 16)      0           full_body_layer[0][0]            
__________________________________________________________________________________________________
relu_layer (Dense)              (None, 110, 2)       34          dropout_1[0][0]                  
__________________________________________________________________________________________________
flatten_1 (Flatten)             (None, 220)          0           relu_layer[0][0]                 
__________________________________________________________________________________________________
softmax_layer (Dense)           (None, 2)            442         flatten_1[0][0]                  
==================================================================================================
Total params: 566
Trainable params: 566
Non-trainable params: 0
__________________________________________________________________________________________________
None
Train on 181 samples, validate on 90 samples
Epoch 1/5
181/181 [==============================] - 45s 248ms/step - loss: 1.3751 - accuracy: 0.5525 - val_loss: 0.6451 - val_accuracy: 0.6444
…
