Model input shape (110, 30)
Model: "sequential_1"
_________________________________________________________________
Layer (type)                 Output Shape              Param #   
=================================================================
simple_rnn_1 (SimpleRNN)     (None, 110, 2)            66        
_________________________________________________________________
dropout_1 (Dropout)          (None, 110, 2)            0         
_________________________________________________________________
dense_1 (Dense)              (None, 110, 2)            6         
_________________________________________________________________
flatten_1 (Flatten)          (None, 220)               0         
_________________________________________________________________
dense_2 (Dense)              (None, 2)                 442       
=================================================================
Total params: 514
Trainable params: 514
Non-trainable params: 0
_________________________________________________________________
None
Train on 181 samples, validate on 90 samples
Epoch 1/5
181/181 [==============================] - 11s 62ms/step - loss: 1.2666 - accuracy: 0.5193 - val_loss: 0.7859 - val_accuracy: 0.5000
Epoch 2/5
…
